2021-11-05 12:25:35.458873: The seed for the current execution is 23119 for dataset covtype with device cuda
2021-11-05 12:25:39.818680: {0: 1523, 1: 201, 2: 552, 3: 58, 4: 1666}
2021-11-05 12:25:39.819601: {0: 47, 1: 64, 2: 836, 3: 5, 4: 48}
2021-11-05 12:26:39.323890: Generator(
  (net): Sequential(
    (0): Linear(in_features=230, out_features=128, bias=True)
    (1): Linear(in_features=128, out_features=4096, bias=True)
    (2): ReLU(inplace=True)
    (3): Linear(in_features=4096, out_features=23, bias=True)
  )
)
2021-11-05 12:26:39.324866: Discriminator(
  (net): Sequential(
    (0): Linear(in_features=23, out_features=1024, bias=True)
    (1): Linear(in_features=1024, out_features=1024, bias=True)
    (2): ReLU(inplace=True)
    (3): Linear(in_features=1024, out_features=512, bias=True)
    (4): Sigmoid()
  )
  (neurons): Linear(in_features=512, out_features=2, bias=True)
  (softmax): Softmax(dim=1)
)
2021-11-05 12:27:19.168617: Generator(
  (net): Sequential(
    (0): Linear(in_features=230, out_features=128, bias=True)
    (1): Linear(in_features=128, out_features=4096, bias=True)
    (2): ReLU(inplace=True)
    (3): Linear(in_features=4096, out_features=23, bias=True)
  )
)
2021-11-05 12:27:19.170570: Discriminator(
  (net): Sequential(
    (0): Linear(in_features=23, out_features=1024, bias=True)
    (1): Linear(in_features=1024, out_features=1024, bias=True)
    (2): ReLU(inplace=True)
    (3): Linear(in_features=1024, out_features=512, bias=True)
    (4): Sigmoid()
  )
  (neurons): Linear(in_features=512, out_features=3, bias=True)
  (softmax): Softmax(dim=1)
)
2021-11-05 12:27:19.227280: index = 100
2021-11-05 12:28:10.609821: Generator(
  (net): Sequential(
    (0): Linear(in_features=230, out_features=128, bias=True)
    (1): Linear(in_features=128, out_features=4096, bias=True)
    (2): ReLU(inplace=True)
    (3): Linear(in_features=4096, out_features=23, bias=True)
  )
)
2021-11-05 12:28:10.610798: Discriminator(
  (net): Sequential(
    (0): Linear(in_features=23, out_features=1024, bias=True)
    (1): Linear(in_features=1024, out_features=1024, bias=True)
    (2): ReLU(inplace=True)
    (3): Linear(in_features=1024, out_features=512, bias=True)
    (4): Sigmoid()
  )
  (neurons): Linear(in_features=512, out_features=4, bias=True)
  (softmax): Softmax(dim=1)
)
2021-11-05 12:28:10.676295: index = 200
2021-11-05 12:29:09.274022: Generator(
  (net): Sequential(
    (0): Linear(in_features=230, out_features=128, bias=True)
    (1): Linear(in_features=128, out_features=4096, bias=True)
    (2): ReLU(inplace=True)
    (3): Linear(in_features=4096, out_features=23, bias=True)
  )
)
2021-11-05 12:29:09.275973: Discriminator(
  (net): Sequential(
    (0): Linear(in_features=23, out_features=1024, bias=True)
    (1): Linear(in_features=1024, out_features=1024, bias=True)
    (2): ReLU(inplace=True)
    (3): Linear(in_features=1024, out_features=512, bias=True)
    (4): Sigmoid()
  )
  (neurons): Linear(in_features=512, out_features=5, bias=True)
  (softmax): Softmax(dim=1)
)
2021-11-05 12:29:09.349175: index = 300
2021-11-05 12:30:18.822606: Generator(
  (net): Sequential(
    (0): Linear(in_features=230, out_features=128, bias=True)
    (1): Linear(in_features=128, out_features=4096, bias=True)
    (2): ReLU(inplace=True)
    (3): Linear(in_features=4096, out_features=23, bias=True)
  )
)
2021-11-05 12:30:18.824557: Discriminator(
  (net): Sequential(
    (0): Linear(in_features=23, out_features=1024, bias=True)
    (1): Linear(in_features=1024, out_features=1024, bias=True)
    (2): ReLU(inplace=True)
    (3): Linear(in_features=1024, out_features=512, bias=True)
    (4): Sigmoid()
  )
  (neurons): Linear(in_features=512, out_features=6, bias=True)
  (softmax): Softmax(dim=1)
)
2021-11-05 12:30:18.898750: index = 400
2021-11-05 12:31:38.898034: Generator(
  (net): Sequential(
    (0): Linear(in_features=230, out_features=128, bias=True)
    (1): Linear(in_features=128, out_features=4096, bias=True)
    (2): ReLU(inplace=True)
    (3): Linear(in_features=4096, out_features=23, bias=True)
  )
)
2021-11-05 12:31:38.899006: Discriminator(
  (net): Sequential(
    (0): Linear(in_features=23, out_features=1024, bias=True)
    (1): Linear(in_features=1024, out_features=1024, bias=True)
    (2): ReLU(inplace=True)
    (3): Linear(in_features=1024, out_features=512, bias=True)
    (4): Sigmoid()
  )
  (neurons): Linear(in_features=512, out_features=7, bias=True)
  (softmax): Softmax(dim=1)
)
2021-11-05 12:31:38.963477: index = 500
2021-11-05 12:33:18.683642: Generator(
  (net): Sequential(
    (0): Linear(in_features=230, out_features=128, bias=True)
    (1): Linear(in_features=128, out_features=4096, bias=True)
    (2): ReLU(inplace=True)
    (3): Linear(in_features=4096, out_features=23, bias=True)
  )
)
2021-11-05 12:33:18.685593: Discriminator(
  (net): Sequential(
    (0): Linear(in_features=23, out_features=1024, bias=True)
    (1): Linear(in_features=1024, out_features=1024, bias=True)
    (2): ReLU(inplace=True)
    (3): Linear(in_features=1024, out_features=512, bias=True)
    (4): Sigmoid()
  )
  (neurons): Linear(in_features=512, out_features=8, bias=True)
  (softmax): Softmax(dim=1)
)
2021-11-05 12:33:18.757154: index = 600
2021-11-05 12:35:04.962752: Generator(
  (net): Sequential(
    (0): Linear(in_features=230, out_features=128, bias=True)
    (1): Linear(in_features=128, out_features=4096, bias=True)
    (2): ReLU(inplace=True)
    (3): Linear(in_features=4096, out_features=23, bias=True)
  )
)
2021-11-05 12:35:04.963728: Discriminator(
  (net): Sequential(
    (0): Linear(in_features=23, out_features=1024, bias=True)
    (1): Linear(in_features=1024, out_features=1024, bias=True)
    (2): ReLU(inplace=True)
    (3): Linear(in_features=1024, out_features=512, bias=True)
    (4): Sigmoid()
  )
  (neurons): Linear(in_features=512, out_features=9, bias=True)
  (softmax): Softmax(dim=1)
)
2021-11-05 12:35:05.031806: index = 700
2021-11-05 12:37:02.384495: Generator(
  (net): Sequential(
    (0): Linear(in_features=230, out_features=128, bias=True)
    (1): Linear(in_features=128, out_features=4096, bias=True)
    (2): ReLU(inplace=True)
    (3): Linear(in_features=4096, out_features=23, bias=True)
  )
)
2021-11-05 12:37:02.386414: Discriminator(
  (net): Sequential(
    (0): Linear(in_features=23, out_features=1024, bias=True)
    (1): Linear(in_features=1024, out_features=1024, bias=True)
    (2): ReLU(inplace=True)
    (3): Linear(in_features=1024, out_features=512, bias=True)
    (4): Sigmoid()
  )
  (neurons): Linear(in_features=512, out_features=10, bias=True)
  (softmax): Softmax(dim=1)
)
2021-11-05 12:37:02.451995: index = 800
2021-11-05 12:39:10.757139: Generator(
  (net): Sequential(
    (0): Linear(in_features=230, out_features=128, bias=True)
    (1): Linear(in_features=128, out_features=4096, bias=True)
    (2): ReLU(inplace=True)
    (3): Linear(in_features=4096, out_features=23, bias=True)
  )
)
2021-11-05 12:39:10.758114: Discriminator(
  (net): Sequential(
    (0): Linear(in_features=23, out_features=1024, bias=True)
    (1): Linear(in_features=1024, out_features=1024, bias=True)
    (2): ReLU(inplace=True)
    (3): Linear(in_features=1024, out_features=512, bias=True)
    (4): Sigmoid()
  )
  (neurons): Linear(in_features=512, out_features=11, bias=True)
  (softmax): Softmax(dim=1)
)
2021-11-05 12:39:10.819274: index = 900
2021-11-05 12:41:19.305777: Generator(
  (net): Sequential(
    (0): Linear(in_features=230, out_features=128, bias=True)
    (1): Linear(in_features=128, out_features=4096, bias=True)
    (2): ReLU(inplace=True)
    (3): Linear(in_features=4096, out_features=23, bias=True)
  )
)
2021-11-05 12:41:19.306752: Discriminator(
  (net): Sequential(
    (0): Linear(in_features=23, out_features=1024, bias=True)
    (1): Linear(in_features=1024, out_features=1024, bias=True)
    (2): ReLU(inplace=True)
    (3): Linear(in_features=1024, out_features=512, bias=True)
    (4): Sigmoid()
  )
  (neurons): Linear(in_features=512, out_features=12, bias=True)
  (softmax): Softmax(dim=1)
)
2021-11-05 12:41:19.367629: index = 1000
2021-11-05 12:43:38.073725: Generator(
  (net): Sequential(
    (0): Linear(in_features=230, out_features=128, bias=True)
    (1): Linear(in_features=128, out_features=4096, bias=True)
    (2): ReLU(inplace=True)
    (3): Linear(in_features=4096, out_features=23, bias=True)
  )
)
2021-11-05 12:43:38.075653: Discriminator(
  (net): Sequential(
    (0): Linear(in_features=23, out_features=1024, bias=True)
    (1): Linear(in_features=1024, out_features=1024, bias=True)
    (2): ReLU(inplace=True)
    (3): Linear(in_features=1024, out_features=512, bias=True)
    (4): Sigmoid()
  )
  (neurons): Linear(in_features=512, out_features=13, bias=True)
  (softmax): Softmax(dim=1)
)
2021-11-05 12:43:38.142994: index = 1100
2021-11-05 12:46:20.438502: Generator(
  (net): Sequential(
    (0): Linear(in_features=230, out_features=128, bias=True)
    (1): Linear(in_features=128, out_features=4096, bias=True)
    (2): ReLU(inplace=True)
    (3): Linear(in_features=4096, out_features=23, bias=True)
  )
)
2021-11-05 12:46:20.440094: Discriminator(
  (net): Sequential(
    (0): Linear(in_features=23, out_features=1024, bias=True)
    (1): Linear(in_features=1024, out_features=1024, bias=True)
    (2): ReLU(inplace=True)
    (3): Linear(in_features=1024, out_features=512, bias=True)
    (4): Sigmoid()
  )
  (neurons): Linear(in_features=512, out_features=14, bias=True)
  (softmax): Softmax(dim=1)
)
2021-11-05 12:46:20.497185: index = 1200
2021-11-05 12:49:01.151896: Generator(
  (net): Sequential(
    (0): Linear(in_features=230, out_features=128, bias=True)
    (1): Linear(in_features=128, out_features=4096, bias=True)
    (2): ReLU(inplace=True)
    (3): Linear(in_features=4096, out_features=23, bias=True)
  )
)
2021-11-05 12:49:01.152839: Discriminator(
  (net): Sequential(
    (0): Linear(in_features=23, out_features=1024, bias=True)
    (1): Linear(in_features=1024, out_features=1024, bias=True)
    (2): ReLU(inplace=True)
    (3): Linear(in_features=1024, out_features=512, bias=True)
    (4): Sigmoid()
  )
  (neurons): Linear(in_features=512, out_features=15, bias=True)
  (softmax): Softmax(dim=1)
)
2021-11-05 12:49:01.209114: index = 1300
2021-11-05 12:51:57.503183: Generator(
  (net): Sequential(
    (0): Linear(in_features=230, out_features=128, bias=True)
    (1): Linear(in_features=128, out_features=4096, bias=True)
    (2): ReLU(inplace=True)
    (3): Linear(in_features=4096, out_features=23, bias=True)
  )
)
2021-11-05 12:51:57.507089: Discriminator(
  (net): Sequential(
    (0): Linear(in_features=23, out_features=1024, bias=True)
    (1): Linear(in_features=1024, out_features=1024, bias=True)
    (2): ReLU(inplace=True)
    (3): Linear(in_features=1024, out_features=512, bias=True)
    (4): Sigmoid()
  )
  (neurons): Linear(in_features=512, out_features=16, bias=True)
  (softmax): Softmax(dim=1)
)
2021-11-05 12:51:57.579674: index = 1400
2021-11-05 12:55:07.194858: Generator(
  (net): Sequential(
    (0): Linear(in_features=230, out_features=128, bias=True)
    (1): Linear(in_features=128, out_features=4096, bias=True)
    (2): ReLU(inplace=True)
    (3): Linear(in_features=4096, out_features=23, bias=True)
  )
)
2021-11-05 12:55:07.196810: Discriminator(
  (net): Sequential(
    (0): Linear(in_features=23, out_features=1024, bias=True)
    (1): Linear(in_features=1024, out_features=1024, bias=True)
    (2): ReLU(inplace=True)
    (3): Linear(in_features=1024, out_features=512, bias=True)
    (4): Sigmoid()
  )
  (neurons): Linear(in_features=512, out_features=17, bias=True)
  (softmax): Softmax(dim=1)
)
2021-11-05 12:55:07.296392: index = 1500
2021-11-05 12:58:35.369355: Generator(
  (net): Sequential(
    (0): Linear(in_features=230, out_features=128, bias=True)
    (1): Linear(in_features=128, out_features=4096, bias=True)
    (2): ReLU(inplace=True)
    (3): Linear(in_features=4096, out_features=23, bias=True)
  )
)
2021-11-05 12:58:35.370323: Discriminator(
  (net): Sequential(
    (0): Linear(in_features=23, out_features=1024, bias=True)
    (1): Linear(in_features=1024, out_features=1024, bias=True)
    (2): ReLU(inplace=True)
    (3): Linear(in_features=1024, out_features=512, bias=True)
    (4): Sigmoid()
  )
  (neurons): Linear(in_features=512, out_features=18, bias=True)
  (softmax): Softmax(dim=1)
)
2021-11-05 12:58:35.436985: index = 1600
2021-11-05 13:02:03.667929: Generator(
  (net): Sequential(
    (0): Linear(in_features=230, out_features=128, bias=True)
    (1): Linear(in_features=128, out_features=4096, bias=True)
    (2): ReLU(inplace=True)
    (3): Linear(in_features=4096, out_features=23, bias=True)
  )
)
2021-11-05 13:02:03.668906: Discriminator(
  (net): Sequential(
    (0): Linear(in_features=23, out_features=1024, bias=True)
    (1): Linear(in_features=1024, out_features=1024, bias=True)
    (2): ReLU(inplace=True)
    (3): Linear(in_features=1024, out_features=512, bias=True)
    (4): Sigmoid()
  )
  (neurons): Linear(in_features=512, out_features=19, bias=True)
  (softmax): Softmax(dim=1)
)
2021-11-05 13:02:03.772235: index = 1700
2021-11-05 13:05:36.266266: Generator(
  (net): Sequential(
    (0): Linear(in_features=230, out_features=128, bias=True)
    (1): Linear(in_features=128, out_features=4096, bias=True)
    (2): ReLU(inplace=True)
    (3): Linear(in_features=4096, out_features=23, bias=True)
  )
)
2021-11-05 13:05:36.268185: Discriminator(
  (net): Sequential(
    (0): Linear(in_features=23, out_features=1024, bias=True)
    (1): Linear(in_features=1024, out_features=1024, bias=True)
    (2): ReLU(inplace=True)
    (3): Linear(in_features=1024, out_features=512, bias=True)
    (4): Sigmoid()
  )
  (neurons): Linear(in_features=512, out_features=20, bias=True)
  (softmax): Softmax(dim=1)
)
2021-11-05 13:05:36.328697: index = 1800
2021-11-05 13:09:21.131454: Generator(
  (net): Sequential(
    (0): Linear(in_features=230, out_features=128, bias=True)
    (1): Linear(in_features=128, out_features=4096, bias=True)
    (2): ReLU(inplace=True)
    (3): Linear(in_features=4096, out_features=23, bias=True)
  )
)
2021-11-05 13:09:21.132434: Discriminator(
  (net): Sequential(
    (0): Linear(in_features=23, out_features=1024, bias=True)
    (1): Linear(in_features=1024, out_features=1024, bias=True)
    (2): ReLU(inplace=True)
    (3): Linear(in_features=1024, out_features=512, bias=True)
    (4): Sigmoid()
  )
  (neurons): Linear(in_features=512, out_features=21, bias=True)
  (softmax): Softmax(dim=1)
)
2021-11-05 13:09:21.202367: index = 1900
2021-11-05 13:13:18.628956: Generator(
  (net): Sequential(
    (0): Linear(in_features=230, out_features=128, bias=True)
    (1): Linear(in_features=128, out_features=4096, bias=True)
    (2): ReLU(inplace=True)
    (3): Linear(in_features=4096, out_features=23, bias=True)
  )
)
2021-11-05 13:13:18.630916: Discriminator(
  (net): Sequential(
    (0): Linear(in_features=23, out_features=1024, bias=True)
    (1): Linear(in_features=1024, out_features=1024, bias=True)
    (2): ReLU(inplace=True)
    (3): Linear(in_features=1024, out_features=512, bias=True)
    (4): Sigmoid()
  )
  (neurons): Linear(in_features=512, out_features=22, bias=True)
  (softmax): Softmax(dim=1)
)
2021-11-05 13:13:18.699017: index = 2000
2021-11-05 13:17:34.475271: Generator(
  (net): Sequential(
    (0): Linear(in_features=230, out_features=128, bias=True)
    (1): Linear(in_features=128, out_features=4096, bias=True)
    (2): ReLU(inplace=True)
    (3): Linear(in_features=4096, out_features=23, bias=True)
  )
)
2021-11-05 13:17:34.478202: Discriminator(
  (net): Sequential(
    (0): Linear(in_features=23, out_features=1024, bias=True)
    (1): Linear(in_features=1024, out_features=1024, bias=True)
    (2): ReLU(inplace=True)
    (3): Linear(in_features=1024, out_features=512, bias=True)
    (4): Sigmoid()
  )
  (neurons): Linear(in_features=512, out_features=23, bias=True)
  (softmax): Softmax(dim=1)
)
2021-11-05 13:17:34.553355: index = 2100
2021-11-05 13:21:55.663039: Generator(
  (net): Sequential(
    (0): Linear(in_features=230, out_features=128, bias=True)
    (1): Linear(in_features=128, out_features=4096, bias=True)
    (2): ReLU(inplace=True)
    (3): Linear(in_features=4096, out_features=23, bias=True)
  )
)
2021-11-05 13:21:55.665964: Discriminator(
  (net): Sequential(
    (0): Linear(in_features=23, out_features=1024, bias=True)
    (1): Linear(in_features=1024, out_features=1024, bias=True)
    (2): ReLU(inplace=True)
    (3): Linear(in_features=1024, out_features=512, bias=True)
    (4): Sigmoid()
  )
  (neurons): Linear(in_features=512, out_features=24, bias=True)
  (softmax): Softmax(dim=1)
)
2021-11-05 13:21:55.749408: index = 2200
2021-11-05 13:26:37.474517: Generator(
  (net): Sequential(
    (0): Linear(in_features=230, out_features=128, bias=True)
    (1): Linear(in_features=128, out_features=4096, bias=True)
    (2): ReLU(inplace=True)
    (3): Linear(in_features=4096, out_features=23, bias=True)
  )
)
2021-11-05 13:26:37.476436: Discriminator(
  (net): Sequential(
    (0): Linear(in_features=23, out_features=1024, bias=True)
    (1): Linear(in_features=1024, out_features=1024, bias=True)
    (2): ReLU(inplace=True)
    (3): Linear(in_features=1024, out_features=512, bias=True)
    (4): Sigmoid()
  )
  (neurons): Linear(in_features=512, out_features=25, bias=True)
  (softmax): Softmax(dim=1)
)
2021-11-05 13:26:37.566228: index = 2300
2021-11-05 13:31:23.754549: Generator(
  (net): Sequential(
    (0): Linear(in_features=230, out_features=128, bias=True)
    (1): Linear(in_features=128, out_features=4096, bias=True)
    (2): ReLU(inplace=True)
    (3): Linear(in_features=4096, out_features=23, bias=True)
  )
)
2021-11-05 13:31:23.756174: Discriminator(
  (net): Sequential(
    (0): Linear(in_features=23, out_features=1024, bias=True)
    (1): Linear(in_features=1024, out_features=1024, bias=True)
    (2): ReLU(inplace=True)
    (3): Linear(in_features=1024, out_features=512, bias=True)
    (4): Sigmoid()
  )
  (neurons): Linear(in_features=512, out_features=26, bias=True)
  (softmax): Softmax(dim=1)
)
2021-11-05 13:31:23.811242: index = 2400
2021-11-05 13:36:10.714686: Generator(
  (net): Sequential(
    (0): Linear(in_features=230, out_features=128, bias=True)
    (1): Linear(in_features=128, out_features=4096, bias=True)
    (2): ReLU(inplace=True)
    (3): Linear(in_features=4096, out_features=23, bias=True)
  )
)
2021-11-05 13:36:10.717563: Discriminator(
  (net): Sequential(
    (0): Linear(in_features=23, out_features=1024, bias=True)
    (1): Linear(in_features=1024, out_features=1024, bias=True)
    (2): ReLU(inplace=True)
    (3): Linear(in_features=1024, out_features=512, bias=True)
    (4): Sigmoid()
  )
  (neurons): Linear(in_features=512, out_features=27, bias=True)
  (softmax): Softmax(dim=1)
)
2021-11-05 13:36:10.778782: index = 2500
2021-11-05 13:41:08.709560: Generator(
  (net): Sequential(
    (0): Linear(in_features=230, out_features=128, bias=True)
    (1): Linear(in_features=128, out_features=4096, bias=True)
    (2): ReLU(inplace=True)
    (3): Linear(in_features=4096, out_features=23, bias=True)
  )
)
2021-11-05 13:41:08.710535: Discriminator(
  (net): Sequential(
    (0): Linear(in_features=23, out_features=1024, bias=True)
    (1): Linear(in_features=1024, out_features=1024, bias=True)
    (2): ReLU(inplace=True)
    (3): Linear(in_features=1024, out_features=512, bias=True)
    (4): Sigmoid()
  )
  (neurons): Linear(in_features=512, out_features=28, bias=True)
  (softmax): Softmax(dim=1)
)
2021-11-05 13:41:08.770467: index = 2600
2021-11-05 13:46:11.705064: Generator(
  (net): Sequential(
    (0): Linear(in_features=230, out_features=128, bias=True)
    (1): Linear(in_features=128, out_features=4096, bias=True)
    (2): ReLU(inplace=True)
    (3): Linear(in_features=4096, out_features=23, bias=True)
  )
)
2021-11-05 13:46:11.706035: Discriminator(
  (net): Sequential(
    (0): Linear(in_features=23, out_features=1024, bias=True)
    (1): Linear(in_features=1024, out_features=1024, bias=True)
    (2): ReLU(inplace=True)
    (3): Linear(in_features=1024, out_features=512, bias=True)
    (4): Sigmoid()
  )
  (neurons): Linear(in_features=512, out_features=29, bias=True)
  (softmax): Softmax(dim=1)
)
2021-11-05 13:46:11.759988: index = 2700
2021-11-05 13:51:20.404134: Generator(
  (net): Sequential(
    (0): Linear(in_features=230, out_features=128, bias=True)
    (1): Linear(in_features=128, out_features=4096, bias=True)
    (2): ReLU(inplace=True)
    (3): Linear(in_features=4096, out_features=23, bias=True)
  )
)
2021-11-05 13:51:20.406926: Discriminator(
  (net): Sequential(
    (0): Linear(in_features=23, out_features=1024, bias=True)
    (1): Linear(in_features=1024, out_features=1024, bias=True)
    (2): ReLU(inplace=True)
    (3): Linear(in_features=1024, out_features=512, bias=True)
    (4): Sigmoid()
  )
  (neurons): Linear(in_features=512, out_features=30, bias=True)
  (softmax): Softmax(dim=1)
)
2021-11-05 13:51:20.494895: index = 2800
2021-11-05 13:56:41.572302: Generator(
  (net): Sequential(
    (0): Linear(in_features=230, out_features=128, bias=True)
    (1): Linear(in_features=128, out_features=4096, bias=True)
    (2): ReLU(inplace=True)
    (3): Linear(in_features=4096, out_features=23, bias=True)
  )
)
2021-11-05 13:56:41.573279: Discriminator(
  (net): Sequential(
    (0): Linear(in_features=23, out_features=1024, bias=True)
    (1): Linear(in_features=1024, out_features=1024, bias=True)
    (2): ReLU(inplace=True)
    (3): Linear(in_features=1024, out_features=512, bias=True)
    (4): Sigmoid()
  )
  (neurons): Linear(in_features=512, out_features=31, bias=True)
  (softmax): Softmax(dim=1)
)
2021-11-05 13:56:41.635303: index = 2900
2021-11-05 14:02:14.914303: Generator(
  (net): Sequential(
    (0): Linear(in_features=230, out_features=128, bias=True)
    (1): Linear(in_features=128, out_features=4096, bias=True)
    (2): ReLU(inplace=True)
    (3): Linear(in_features=4096, out_features=23, bias=True)
  )
)
2021-11-05 14:02:14.915295: Discriminator(
  (net): Sequential(
    (0): Linear(in_features=23, out_features=1024, bias=True)
    (1): Linear(in_features=1024, out_features=1024, bias=True)
    (2): ReLU(inplace=True)
    (3): Linear(in_features=1024, out_features=512, bias=True)
    (4): Sigmoid()
  )
  (neurons): Linear(in_features=512, out_features=32, bias=True)
  (softmax): Softmax(dim=1)
)
2021-11-05 14:02:14.973607: index = 3000
2021-11-05 14:08:12.311599: Generator(
  (net): Sequential(
    (0): Linear(in_features=230, out_features=128, bias=True)
    (1): Linear(in_features=128, out_features=4096, bias=True)
    (2): ReLU(inplace=True)
    (3): Linear(in_features=4096, out_features=23, bias=True)
  )
)
2021-11-05 14:08:12.313551: Discriminator(
  (net): Sequential(
    (0): Linear(in_features=23, out_features=1024, bias=True)
    (1): Linear(in_features=1024, out_features=1024, bias=True)
    (2): ReLU(inplace=True)
    (3): Linear(in_features=1024, out_features=512, bias=True)
    (4): Sigmoid()
  )
  (neurons): Linear(in_features=512, out_features=33, bias=True)
  (softmax): Softmax(dim=1)
)
2021-11-05 14:08:12.371118: index = 3100
2021-11-05 14:14:21.053483: Generator(
  (net): Sequential(
    (0): Linear(in_features=230, out_features=128, bias=True)
    (1): Linear(in_features=128, out_features=4096, bias=True)
    (2): ReLU(inplace=True)
    (3): Linear(in_features=4096, out_features=23, bias=True)
  )
)
2021-11-05 14:14:21.056417: Discriminator(
  (net): Sequential(
    (0): Linear(in_features=23, out_features=1024, bias=True)
    (1): Linear(in_features=1024, out_features=1024, bias=True)
    (2): ReLU(inplace=True)
    (3): Linear(in_features=1024, out_features=512, bias=True)
    (4): Sigmoid()
  )
  (neurons): Linear(in_features=512, out_features=34, bias=True)
  (softmax): Softmax(dim=1)
)
2021-11-05 14:14:21.147039: index = 3200
2021-11-05 14:20:40.160178: Generator(
  (net): Sequential(
    (0): Linear(in_features=230, out_features=128, bias=True)
    (1): Linear(in_features=128, out_features=4096, bias=True)
    (2): ReLU(inplace=True)
    (3): Linear(in_features=4096, out_features=23, bias=True)
  )
)
2021-11-05 14:20:40.162131: Discriminator(
  (net): Sequential(
    (0): Linear(in_features=23, out_features=1024, bias=True)
    (1): Linear(in_features=1024, out_features=1024, bias=True)
    (2): ReLU(inplace=True)
    (3): Linear(in_features=1024, out_features=512, bias=True)
    (4): Sigmoid()
  )
  (neurons): Linear(in_features=512, out_features=35, bias=True)
  (softmax): Softmax(dim=1)
)
2021-11-05 14:20:40.290323: index = 3300
2021-11-05 14:26:52.416682: Generator(
  (net): Sequential(
    (0): Linear(in_features=230, out_features=128, bias=True)
    (1): Linear(in_features=128, out_features=4096, bias=True)
    (2): ReLU(inplace=True)
    (3): Linear(in_features=4096, out_features=23, bias=True)
  )
)
2021-11-05 14:26:52.417627: Discriminator(
  (net): Sequential(
    (0): Linear(in_features=23, out_features=1024, bias=True)
    (1): Linear(in_features=1024, out_features=1024, bias=True)
    (2): ReLU(inplace=True)
    (3): Linear(in_features=1024, out_features=512, bias=True)
    (4): Sigmoid()
  )
  (neurons): Linear(in_features=512, out_features=36, bias=True)
  (softmax): Softmax(dim=1)
)
2021-11-05 14:26:52.469400: index = 3400
2021-11-05 14:32:57.885337: Generator(
  (net): Sequential(
    (0): Linear(in_features=230, out_features=128, bias=True)
    (1): Linear(in_features=128, out_features=4096, bias=True)
    (2): ReLU(inplace=True)
    (3): Linear(in_features=4096, out_features=23, bias=True)
  )
)
2021-11-05 14:32:57.886279: Discriminator(
  (net): Sequential(
    (0): Linear(in_features=23, out_features=1024, bias=True)
    (1): Linear(in_features=1024, out_features=1024, bias=True)
    (2): ReLU(inplace=True)
    (3): Linear(in_features=1024, out_features=512, bias=True)
    (4): Sigmoid()
  )
  (neurons): Linear(in_features=512, out_features=37, bias=True)
  (softmax): Softmax(dim=1)
)
2021-11-05 14:32:57.941913: index = 3500
2021-11-05 14:39:12.289538: Generator(
  (net): Sequential(
    (0): Linear(in_features=230, out_features=128, bias=True)
    (1): Linear(in_features=128, out_features=4096, bias=True)
    (2): ReLU(inplace=True)
    (3): Linear(in_features=4096, out_features=23, bias=True)
  )
)
2021-11-05 14:39:12.291455: Discriminator(
  (net): Sequential(
    (0): Linear(in_features=23, out_features=1024, bias=True)
    (1): Linear(in_features=1024, out_features=1024, bias=True)
    (2): ReLU(inplace=True)
    (3): Linear(in_features=1024, out_features=512, bias=True)
    (4): Sigmoid()
  )
  (neurons): Linear(in_features=512, out_features=38, bias=True)
  (softmax): Softmax(dim=1)
)
2021-11-05 14:39:12.350991: index = 3600
2021-11-05 14:45:36.773247: Generator(
  (net): Sequential(
    (0): Linear(in_features=230, out_features=128, bias=True)
    (1): Linear(in_features=128, out_features=4096, bias=True)
    (2): ReLU(inplace=True)
    (3): Linear(in_features=4096, out_features=23, bias=True)
  )
)
2021-11-05 14:45:36.774233: Discriminator(
  (net): Sequential(
    (0): Linear(in_features=23, out_features=1024, bias=True)
    (1): Linear(in_features=1024, out_features=1024, bias=True)
    (2): ReLU(inplace=True)
    (3): Linear(in_features=1024, out_features=512, bias=True)
    (4): Sigmoid()
  )
  (neurons): Linear(in_features=512, out_features=39, bias=True)
  (softmax): Softmax(dim=1)
)
2021-11-05 14:45:36.834735: index = 3700
2021-11-05 14:52:09.157335: Generator(
  (net): Sequential(
    (0): Linear(in_features=230, out_features=128, bias=True)
    (1): Linear(in_features=128, out_features=4096, bias=True)
    (2): ReLU(inplace=True)
    (3): Linear(in_features=4096, out_features=23, bias=True)
  )
)
2021-11-05 14:52:09.158256: Discriminator(
  (net): Sequential(
    (0): Linear(in_features=23, out_features=1024, bias=True)
    (1): Linear(in_features=1024, out_features=1024, bias=True)
    (2): ReLU(inplace=True)
    (3): Linear(in_features=1024, out_features=512, bias=True)
    (4): Sigmoid()
  )
  (neurons): Linear(in_features=512, out_features=40, bias=True)
  (softmax): Softmax(dim=1)
)
2021-11-05 14:52:09.209055: index = 3800
2021-11-05 14:52:10.601807: drift_indices = [(0, 100), (100, 200), (200, 300), (300, 400), (400, 500), (500, 600), (600, 700), (700, 800), (800, 900), (900, 1000), (1000, 1100), (1100, 1200), (1200, 1300), (1300, 1400), (1400, 1500), (1500, 1600), (1600, 1700), (1700, 1800), (1800, 1900), (1900, 2000), (2000, 2100), (2100, 2200), (2200, 2300), (2300, 2400), (2400, 2500), (2500, 2600), (2600, 2700), (2700, 2800), (2800, 2900), (2900, 3000), (3000, 3100), (3100, 3200), (3200, 3300), (3300, 3400), (3400, 3500), (3500, 3600), (3600, 3700), (3700, 3800), (3800, 3900)]
…
