2021-11-09 11:41:29.108845: The seed for the current execution is 43469 for dataset messenger with device cuda
2021-11-09 11:41:34.194125: train offset: 61500, size: 4000
2021-11-09 11:41:34.196079: {0: 1523, 1: 201, 2: 552, 3: 58, 4: 1666}
2021-11-09 11:41:34.197054: test offset: 19630, size: 1000
2021-11-09 11:41:34.197054: {0: 47, 1: 64, 2: 836, 3: 5, 4: 48}
2021-11-09 11:42:40.993561: Generator(
  (net): Sequential(
    (0): Linear(in_features=230, out_features=128, bias=True)
    (1): Linear(in_features=128, out_features=4096, bias=True)
    (2): ReLU(inplace=True)
    (3): Linear(in_features=4096, out_features=23, bias=True)
  )
)
2021-11-09 11:42:40.994537: Discriminator(
  (net): Sequential(
    (0): Linear(in_features=23, out_features=1024, bias=True)
    (1): Linear(in_features=1024, out_features=1024, bias=True)
    (2): ReLU(inplace=True)
    (3): Linear(in_features=1024, out_features=512, bias=True)
    (4): Sigmoid()
  )
  (neurons): Linear(in_features=512, out_features=2, bias=True)
  (softmax): Softmax(dim=1)
)
2021-11-09 11:42:47.308366: Generator(
  (net): Sequential(
    (0): Linear(in_features=230, out_features=128, bias=True)
    (1): Linear(in_features=128, out_features=4096, bias=True)
    (2): ReLU(inplace=True)
    (3): Linear(in_features=4096, out_features=23, bias=True)
  )
)
2021-11-09 11:42:47.309344: Discriminator(
  (net): Sequential(
    (0): Linear(in_features=23, out_features=1024, bias=True)
    (1): Linear(in_features=1024, out_features=1024, bias=True)
    (2): ReLU(inplace=True)
    (3): Linear(in_features=1024, out_features=512, bias=True)
    (4): Sigmoid()
  )
  (neurons): Linear(in_features=512, out_features=2, bias=True)
  (softmax): Softmax(dim=1)
)
2021-11-09 11:42:49.434910: drift_indices = [(0, 100)]
2021-11-09 11:42:49.434910: drift_labels = []
2021-11-09 11:42:49.438169: Accuracy value is 0.947959 for training and testing datasets messenger
2021-11-09 11:42:49.453227: accuracy = [1570.6769387755103, 252.90979591836734, 1211.7034693877551, 54.98714285714286, 1558.670612244898]
…
