2021-10-28 11:42:25.956425: The seed for the current execution is 51873 for dataset covtype with device cuda
2021-10-28 11:42:30.290188: {0: 1523, 1: 201, 2: 552, 3: 58, 4: 1666}
2021-10-28 11:42:30.291884: {0: 47, 1: 64, 2: 836, 3: 5, 4: 48}
2021-10-28 11:43:34.445515: Generator(
  (net): Sequential(
    (0): Linear(in_features=230, out_features=128, bias=True)
    (1): Linear(in_features=128, out_features=4096, bias=True)
    (2): ReLU(inplace=True)
    (3): Linear(in_features=4096, out_features=23, bias=True)
  )
)
2021-10-28 11:43:34.446523: Discriminator(
  (net): Sequential(
    (0): Linear(in_features=23, out_features=1024, bias=True)
    (1): Linear(in_features=1024, out_features=1024, bias=True)
    (2): ReLU(inplace=True)
    (3): Linear(in_features=1024, out_features=512, bias=True)
    (4): Sigmoid()
  )
  (neurons): Linear(in_features=512, out_features=2, bias=True)
  (softmax): Softmax(dim=1)
)
2021-10-28 11:44:13.569454: Generator(
  (net): Sequential(
    (0): Linear(in_features=230, out_features=128, bias=True)
    (1): Linear(in_features=128, out_features=4096, bias=True)
    (2): ReLU(inplace=True)
    (3): Linear(in_features=4096, out_features=23, bias=True)
  )
)
2021-10-28 11:44:13.570469: Discriminator(
  (net): Sequential(
    (0): Linear(in_features=23, out_features=1024, bias=True)
    (1): Linear(in_features=1024, out_features=1024, bias=True)
    (2): ReLU(inplace=True)
    (3): Linear(in_features=1024, out_features=512, bias=True)
    (4): Sigmoid()
  )
  (neurons): Linear(in_features=512, out_features=3, bias=True)
  (softmax): Softmax(dim=1)
)
2021-10-28 11:44:13.628492: index = 100
2021-10-28 11:45:02.539697: Generator(
  (net): Sequential(
    (0): Linear(in_features=230, out_features=128, bias=True)
    (1): Linear(in_features=128, out_features=4096, bias=True)
    (2): ReLU(inplace=True)
    (3): Linear(in_features=4096, out_features=23, bias=True)
  )
)
2021-10-28 11:45:02.540672: Discriminator(
  (net): Sequential(
    (0): Linear(in_features=23, out_features=1024, bias=True)
    (1): Linear(in_features=1024, out_features=1024, bias=True)
    (2): ReLU(inplace=True)
    (3): Linear(in_features=1024, out_features=512, bias=True)
    (4): Sigmoid()
  )
  (neurons): Linear(in_features=512, out_features=4, bias=True)
  (softmax): Softmax(dim=1)
)
2021-10-28 11:45:02.596781: index = 200
2021-10-28 11:46:01.116438: Generator(
  (net): Sequential(
    (0): Linear(in_features=230, out_features=128, bias=True)
    (1): Linear(in_features=128, out_features=4096, bias=True)
    (2): ReLU(inplace=True)
    (3): Linear(in_features=4096, out_features=23, bias=True)
  )
)
2021-10-28 11:46:01.117414: Discriminator(
  (net): Sequential(
    (0): Linear(in_features=23, out_features=1024, bias=True)
    (1): Linear(in_features=1024, out_features=1024, bias=True)
    (2): ReLU(inplace=True)
    (3): Linear(in_features=1024, out_features=512, bias=True)
    (4): Sigmoid()
  )
  (neurons): Linear(in_features=512, out_features=5, bias=True)
  (softmax): Softmax(dim=1)
)
2021-10-28 11:46:01.194537: index = 300
2021-10-28 11:47:09.325612: Generator(
  (net): Sequential(
    (0): Linear(in_features=230, out_features=128, bias=True)
    (1): Linear(in_features=128, out_features=4096, bias=True)
    (2): ReLU(inplace=True)
    (3): Linear(in_features=4096, out_features=23, bias=True)
  )
)
2021-10-28 11:47:09.326588: Discriminator(
  (net): Sequential(
    (0): Linear(in_features=23, out_features=1024, bias=True)
    (1): Linear(in_features=1024, out_features=1024, bias=True)
    (2): ReLU(inplace=True)
    (3): Linear(in_features=1024, out_features=512, bias=True)
    (4): Sigmoid()
  )
  (neurons): Linear(in_features=512, out_features=6, bias=True)
  (softmax): Softmax(dim=1)
)
2021-10-28 11:47:09.375326: index = 400
2021-10-28 11:48:26.846786: Generator(
  (net): Sequential(
    (0): Linear(in_features=230, out_features=128, bias=True)
    (1): Linear(in_features=128, out_features=4096, bias=True)
    (2): ReLU(inplace=True)
    (3): Linear(in_features=4096, out_features=23, bias=True)
  )
)
2021-10-28 11:48:26.847763: Discriminator(
  (net): Sequential(
    (0): Linear(in_features=23, out_features=1024, bias=True)
    (1): Linear(in_features=1024, out_features=1024, bias=True)
    (2): ReLU(inplace=True)
    (3): Linear(in_features=1024, out_features=512, bias=True)
    (4): Sigmoid()
  )
  (neurons): Linear(in_features=512, out_features=7, bias=True)
  (softmax): Softmax(dim=1)
)
2021-10-28 11:48:26.896384: index = 500
2021-10-28 11:49:52.900611: Generator(
  (net): Sequential(
    (0): Linear(in_features=230, out_features=128, bias=True)
    (1): Linear(in_features=128, out_features=4096, bias=True)
    (2): ReLU(inplace=True)
    (3): Linear(in_features=4096, out_features=23, bias=True)
  )
)
2021-10-28 11:49:52.902564: Discriminator(
  (net): Sequential(
    (0): Linear(in_features=23, out_features=1024, bias=True)
    (1): Linear(in_features=1024, out_features=1024, bias=True)
    (2): ReLU(inplace=True)
    (3): Linear(in_features=1024, out_features=512, bias=True)
    (4): Sigmoid()
  )
  (neurons): Linear(in_features=512, out_features=8, bias=True)
  (softmax): Softmax(dim=1)
)
2021-10-28 11:49:52.964654: index = 600
2021-10-28 11:51:28.469376: Generator(
  (net): Sequential(
    (0): Linear(in_features=230, out_features=128, bias=True)
    (1): Linear(in_features=128, out_features=4096, bias=True)
    (2): ReLU(inplace=True)
    (3): Linear(in_features=4096, out_features=23, bias=True)
  )
)
2021-10-28 11:51:28.470352: Discriminator(
  (net): Sequential(
    (0): Linear(in_features=23, out_features=1024, bias=True)
    (1): Linear(in_features=1024, out_features=1024, bias=True)
    (2): ReLU(inplace=True)
    (3): Linear(in_features=1024, out_features=512, bias=True)
    (4): Sigmoid()
  )
  (neurons): Linear(in_features=512, out_features=9, bias=True)
  (softmax): Softmax(dim=1)
)
2021-10-28 11:51:28.518801: index = 700
2021-10-28 11:53:14.346438: Generator(
  (net): Sequential(
    (0): Linear(in_features=230, out_features=128, bias=True)
    (1): Linear(in_features=128, out_features=4096, bias=True)
    (2): ReLU(inplace=True)
    (3): Linear(in_features=4096, out_features=23, bias=True)
  )
)
2021-10-28 11:53:14.348391: Discriminator(
  (net): Sequential(
    (0): Linear(in_features=23, out_features=1024, bias=True)
    (1): Linear(in_features=1024, out_features=1024, bias=True)
    (2): ReLU(inplace=True)
    (3): Linear(in_features=1024, out_features=512, bias=True)
    (4): Sigmoid()
  )
  (neurons): Linear(in_features=512, out_features=10, bias=True)
  (softmax): Softmax(dim=1)
)
2021-10-28 11:53:14.399015: index = 800
2021-10-28 11:55:15.681731: Generator(
  (net): Sequential(
    (0): Linear(in_features=230, out_features=128, bias=True)
    (1): Linear(in_features=128, out_features=4096, bias=True)
    (2): ReLU(inplace=True)
    (3): Linear(in_features=4096, out_features=23, bias=True)
  )
)
2021-10-28 11:55:15.682708: Discriminator(
  (net): Sequential(
    (0): Linear(in_features=23, out_features=1024, bias=True)
    (1): Linear(in_features=1024, out_features=1024, bias=True)
    (2): ReLU(inplace=True)
    (3): Linear(in_features=1024, out_features=512, bias=True)
    (4): Sigmoid()
  )
  (neurons): Linear(in_features=512, out_features=11, bias=True)
  (softmax): Softmax(dim=1)
)
2021-10-28 11:55:15.742282: index = 900
2021-10-28 11:57:21.390151: Generator(
  (net): Sequential(
    (0): Linear(in_features=230, out_features=128, bias=True)
    (1): Linear(in_features=128, out_features=4096, bias=True)
    (2): ReLU(inplace=True)
    (3): Linear(in_features=4096, out_features=23, bias=True)
  )
)
2021-10-28 11:57:21.391127: Discriminator(
  (net): Sequential(
    (0): Linear(in_features=23, out_features=1024, bias=True)
    (1): Linear(in_features=1024, out_features=1024, bias=True)
    (2): ReLU(inplace=True)
    (3): Linear(in_features=1024, out_features=512, bias=True)
    (4): Sigmoid()
  )
  (neurons): Linear(in_features=512, out_features=12, bias=True)
  (softmax): Softmax(dim=1)
)
2021-10-28 11:57:21.445773: index = 1000
2021-10-28 11:59:35.717897: Generator(
  (net): Sequential(
    (0): Linear(in_features=230, out_features=128, bias=True)
    (1): Linear(in_features=128, out_features=4096, bias=True)
    (2): ReLU(inplace=True)
    (3): Linear(in_features=4096, out_features=23, bias=True)
  )
)
2021-10-28 11:59:35.720383: Discriminator(
  (net): Sequential(
    (0): Linear(in_features=23, out_features=1024, bias=True)
    (1): Linear(in_features=1024, out_features=1024, bias=True)
    (2): ReLU(inplace=True)
    (3): Linear(in_features=1024, out_features=512, bias=True)
    (4): Sigmoid()
  )
  (neurons): Linear(in_features=512, out_features=13, bias=True)
  (softmax): Softmax(dim=1)
)
2021-10-28 11:59:35.808455: index = 1100
2021-10-28 12:02:05.043422: Generator(
  (net): Sequential(
    (0): Linear(in_features=230, out_features=128, bias=True)
    (1): Linear(in_features=128, out_features=4096, bias=True)
    (2): ReLU(inplace=True)
    (3): Linear(in_features=4096, out_features=23, bias=True)
  )
)
2021-10-28 12:02:05.044399: Discriminator(
  (net): Sequential(
    (0): Linear(in_features=23, out_features=1024, bias=True)
    (1): Linear(in_features=1024, out_features=1024, bias=True)
    (2): ReLU(inplace=True)
    (3): Linear(in_features=1024, out_features=512, bias=True)
    (4): Sigmoid()
  )
  (neurons): Linear(in_features=512, out_features=14, bias=True)
  (softmax): Softmax(dim=1)
)
2021-10-28 12:02:05.098810: index = 1200
2021-10-28 12:04:42.965198: Generator(
  (net): Sequential(
    (0): Linear(in_features=230, out_features=128, bias=True)
    (1): Linear(in_features=128, out_features=4096, bias=True)
    (2): ReLU(inplace=True)
    (3): Linear(in_features=4096, out_features=23, bias=True)
  )
)
2021-10-28 12:04:42.967150: Discriminator(
  (net): Sequential(
    (0): Linear(in_features=23, out_features=1024, bias=True)
    (1): Linear(in_features=1024, out_features=1024, bias=True)
    (2): ReLU(inplace=True)
    (3): Linear(in_features=1024, out_features=512, bias=True)
    (4): Sigmoid()
  )
  (neurons): Linear(in_features=512, out_features=15, bias=True)
  (softmax): Softmax(dim=1)
)
2021-10-28 12:04:43.032913: index = 1300
2021-10-28 12:07:34.680356: Generator(
  (net): Sequential(
    (0): Linear(in_features=230, out_features=128, bias=True)
    (1): Linear(in_features=128, out_features=4096, bias=True)
    (2): ReLU(inplace=True)
    (3): Linear(in_features=4096, out_features=23, bias=True)
  )
)
2021-10-28 12:07:34.681331: Discriminator(
  (net): Sequential(
    (0): Linear(in_features=23, out_features=1024, bias=True)
    (1): Linear(in_features=1024, out_features=1024, bias=True)
    (2): ReLU(inplace=True)
    (3): Linear(in_features=1024, out_features=512, bias=True)
    (4): Sigmoid()
  )
  (neurons): Linear(in_features=512, out_features=16, bias=True)
  (softmax): Softmax(dim=1)
)
2021-10-28 12:07:34.738121: index = 1400
2021-10-28 12:10:37.012944: Generator(
  (net): Sequential(
    (0): Linear(in_features=230, out_features=128, bias=True)
    (1): Linear(in_features=128, out_features=4096, bias=True)
    (2): ReLU(inplace=True)
    (3): Linear(in_features=4096, out_features=23, bias=True)
  )
)
2021-10-28 12:10:37.013919: Discriminator(
  (net): Sequential(
    (0): Linear(in_features=23, out_features=1024, bias=True)
    (1): Linear(in_features=1024, out_features=1024, bias=True)
    (2): ReLU(inplace=True)
    (3): Linear(in_features=1024, out_features=512, bias=True)
    (4): Sigmoid()
  )
  (neurons): Linear(in_features=512, out_features=17, bias=True)
  (softmax): Softmax(dim=1)
)
2021-10-28 12:10:37.098868: index = 1500
2021-10-28 12:13:50.797240: Generator(
  (net): Sequential(
    (0): Linear(in_features=230, out_features=128, bias=True)
    (1): Linear(in_features=128, out_features=4096, bias=True)
    (2): ReLU(inplace=True)
    (3): Linear(in_features=4096, out_features=23, bias=True)
  )
)
2021-10-28 12:13:50.799404: Discriminator(
  (net): Sequential(
    (0): Linear(in_features=23, out_features=1024, bias=True)
    (1): Linear(in_features=1024, out_features=1024, bias=True)
    (2): ReLU(inplace=True)
    (3): Linear(in_features=1024, out_features=512, bias=True)
    (4): Sigmoid()
  )
  (neurons): Linear(in_features=512, out_features=18, bias=True)
  (softmax): Softmax(dim=1)
)
2021-10-28 12:13:50.850615: index = 1600
2021-10-28 12:17:13.926879: Generator(
  (net): Sequential(
    (0): Linear(in_features=230, out_features=128, bias=True)
    (1): Linear(in_features=128, out_features=4096, bias=True)
    (2): ReLU(inplace=True)
    (3): Linear(in_features=4096, out_features=23, bias=True)
  )
)
2021-10-28 12:17:13.928829: Discriminator(
  (net): Sequential(
    (0): Linear(in_features=23, out_features=1024, bias=True)
    (1): Linear(in_features=1024, out_features=1024, bias=True)
    (2): ReLU(inplace=True)
    (3): Linear(in_features=1024, out_features=512, bias=True)
    (4): Sigmoid()
  )
  (neurons): Linear(in_features=512, out_features=19, bias=True)
  (softmax): Softmax(dim=1)
)
2021-10-28 12:17:14.017571: index = 1700
2021-10-28 12:20:42.333394: Generator(
  (net): Sequential(
    (0): Linear(in_features=230, out_features=128, bias=True)
    (1): Linear(in_features=128, out_features=4096, bias=True)
    (2): ReLU(inplace=True)
    (3): Linear(in_features=4096, out_features=23, bias=True)
  )
)
2021-10-28 12:20:42.334370: Discriminator(
  (net): Sequential(
    (0): Linear(in_features=23, out_features=1024, bias=True)
    (1): Linear(in_features=1024, out_features=1024, bias=True)
    (2): ReLU(inplace=True)
    (3): Linear(in_features=1024, out_features=512, bias=True)
    (4): Sigmoid()
  )
  (neurons): Linear(in_features=512, out_features=20, bias=True)
  (softmax): Softmax(dim=1)
)
2021-10-28 12:20:42.388803: index = 1800
2021-10-28 12:24:11.418416: Generator(
  (net): Sequential(
    (0): Linear(in_features=230, out_features=128, bias=True)
    (1): Linear(in_features=128, out_features=4096, bias=True)
    (2): ReLU(inplace=True)
    (3): Linear(in_features=4096, out_features=23, bias=True)
  )
)
2021-10-28 12:24:11.420371: Discriminator(
  (net): Sequential(
    (0): Linear(in_features=23, out_features=1024, bias=True)
    (1): Linear(in_features=1024, out_features=1024, bias=True)
    (2): ReLU(inplace=True)
    (3): Linear(in_features=1024, out_features=512, bias=True)
    (4): Sigmoid()
  )
  (neurons): Linear(in_features=512, out_features=21, bias=True)
  (softmax): Softmax(dim=1)
)
2021-10-28 12:24:11.468224: index = 1900
2021-10-28 12:27:50.199464: Generator(
  (net): Sequential(
    (0): Linear(in_features=230, out_features=128, bias=True)
    (1): Linear(in_features=128, out_features=4096, bias=True)
    (2): ReLU(inplace=True)
    (3): Linear(in_features=4096, out_features=23, bias=True)
  )
)
2021-10-28 12:27:50.200392: Discriminator(
  (net): Sequential(
    (0): Linear(in_features=23, out_features=1024, bias=True)
    (1): Linear(in_features=1024, out_features=1024, bias=True)
    (2): ReLU(inplace=True)
    (3): Linear(in_features=1024, out_features=512, bias=True)
    (4): Sigmoid()
  )
  (neurons): Linear(in_features=512, out_features=22, bias=True)
  (softmax): Softmax(dim=1)
)
2021-10-28 12:27:50.249242: index = 2000
2021-10-28 12:31:38.212101: Generator(
  (net): Sequential(
    (0): Linear(in_features=230, out_features=128, bias=True)
    (1): Linear(in_features=128, out_features=4096, bias=True)
    (2): ReLU(inplace=True)
    (3): Linear(in_features=4096, out_features=23, bias=True)
  )
)
2021-10-28 12:31:38.213063: Discriminator(
  (net): Sequential(
    (0): Linear(in_features=23, out_features=1024, bias=True)
    (1): Linear(in_features=1024, out_features=1024, bias=True)
    (2): ReLU(inplace=True)
    (3): Linear(in_features=1024, out_features=512, bias=True)
    (4): Sigmoid()
  )
  (neurons): Linear(in_features=512, out_features=23, bias=True)
  (softmax): Softmax(dim=1)
)
2021-10-28 12:31:38.265786: index = 2100
2021-10-28 12:35:35.849372: Generator(
  (net): Sequential(
    (0): Linear(in_features=230, out_features=128, bias=True)
    (1): Linear(in_features=128, out_features=4096, bias=True)
    (2): ReLU(inplace=True)
    (3): Linear(in_features=4096, out_features=23, bias=True)
  )
)
2021-10-28 12:35:35.850316: Discriminator(
  (net): Sequential(
    (0): Linear(in_features=23, out_features=1024, bias=True)
    (1): Linear(in_features=1024, out_features=1024, bias=True)
    (2): ReLU(inplace=True)
    (3): Linear(in_features=1024, out_features=512, bias=True)
    (4): Sigmoid()
  )
  (neurons): Linear(in_features=512, out_features=24, bias=True)
  (softmax): Softmax(dim=1)
)
2021-10-28 12:35:35.910860: index = 2200
2021-10-28 12:39:43.199832: Generator(
  (net): Sequential(
    (0): Linear(in_features=230, out_features=128, bias=True)
    (1): Linear(in_features=128, out_features=4096, bias=True)
    (2): ReLU(inplace=True)
    (3): Linear(in_features=4096, out_features=23, bias=True)
  )
)
2021-10-28 12:39:43.200774: Discriminator(
  (net): Sequential(
    (0): Linear(in_features=23, out_features=1024, bias=True)
    (1): Linear(in_features=1024, out_features=1024, bias=True)
    (2): ReLU(inplace=True)
    (3): Linear(in_features=1024, out_features=512, bias=True)
    (4): Sigmoid()
  )
  (neurons): Linear(in_features=512, out_features=25, bias=True)
  (softmax): Softmax(dim=1)
)
2021-10-28 12:39:43.274997: index = 2300
2021-10-28 12:44:00.638595: Generator(
  (net): Sequential(
    (0): Linear(in_features=230, out_features=128, bias=True)
    (1): Linear(in_features=128, out_features=4096, bias=True)
    (2): ReLU(inplace=True)
    (3): Linear(in_features=4096, out_features=23, bias=True)
  )
)
2021-10-28 12:44:00.639538: Discriminator(
  (net): Sequential(
    (0): Linear(in_features=23, out_features=1024, bias=True)
    (1): Linear(in_features=1024, out_features=1024, bias=True)
    (2): ReLU(inplace=True)
    (3): Linear(in_features=1024, out_features=512, bias=True)
    (4): Sigmoid()
  )
  (neurons): Linear(in_features=512, out_features=26, bias=True)
  (softmax): Softmax(dim=1)
)
2021-10-28 12:44:00.689361: index = 2400
2021-10-28 12:48:26.354119: Generator(
  (net): Sequential(
    (0): Linear(in_features=230, out_features=128, bias=True)
    (1): Linear(in_features=128, out_features=4096, bias=True)
    (2): ReLU(inplace=True)
    (3): Linear(in_features=4096, out_features=23, bias=True)
  )
)
2021-10-28 12:48:26.355095: Discriminator(
  (net): Sequential(
    (0): Linear(in_features=23, out_features=1024, bias=True)
    (1): Linear(in_features=1024, out_features=1024, bias=True)
    (2): ReLU(inplace=True)
    (3): Linear(in_features=1024, out_features=512, bias=True)
    (4): Sigmoid()
  )
  (neurons): Linear(in_features=512, out_features=27, bias=True)
  (softmax): Softmax(dim=1)
)
2021-10-28 12:48:26.403946: index = 2500
2021-10-28 12:53:01.405452: Generator(
  (net): Sequential(
    (0): Linear(in_features=230, out_features=128, bias=True)
    (1): Linear(in_features=128, out_features=4096, bias=True)
    (2): ReLU(inplace=True)
    (3): Linear(in_features=4096, out_features=23, bias=True)
  )
)
2021-10-28 12:53:01.406429: Discriminator(
  (net): Sequential(
    (0): Linear(in_features=23, out_features=1024, bias=True)
    (1): Linear(in_features=1024, out_features=1024, bias=True)
    (2): ReLU(inplace=True)
    (3): Linear(in_features=1024, out_features=512, bias=True)
    (4): Sigmoid()
  )
  (neurons): Linear(in_features=512, out_features=28, bias=True)
  (softmax): Softmax(dim=1)
)
2021-10-28 12:53:01.455277: index = 2600
2021-10-28 12:57:46.358174: Generator(
  (net): Sequential(
    (0): Linear(in_features=230, out_features=128, bias=True)
    (1): Linear(in_features=128, out_features=4096, bias=True)
    (2): ReLU(inplace=True)
    (3): Linear(in_features=4096, out_features=23, bias=True)
  )
)
2021-10-28 12:57:46.359149: Discriminator(
  (net): Sequential(
    (0): Linear(in_features=23, out_features=1024, bias=True)
    (1): Linear(in_features=1024, out_features=1024, bias=True)
    (2): ReLU(inplace=True)
    (3): Linear(in_features=1024, out_features=512, bias=True)
    (4): Sigmoid()
  )
  (neurons): Linear(in_features=512, out_features=29, bias=True)
  (softmax): Softmax(dim=1)
)
2021-10-28 12:57:46.424589: index = 2700
2021-10-28 13:02:41.402800: Generator(
  (net): Sequential(
    (0): Linear(in_features=230, out_features=128, bias=True)
    (1): Linear(in_features=128, out_features=4096, bias=True)
    (2): ReLU(inplace=True)
    (3): Linear(in_features=4096, out_features=23, bias=True)
  )
)
2021-10-28 13:02:41.404715: Discriminator(
  (net): Sequential(
    (0): Linear(in_features=23, out_features=1024, bias=True)
    (1): Linear(in_features=1024, out_features=1024, bias=True)
    (2): ReLU(inplace=True)
    (3): Linear(in_features=1024, out_features=512, bias=True)
    (4): Sigmoid()
  )
  (neurons): Linear(in_features=512, out_features=30, bias=True)
  (softmax): Softmax(dim=1)
)
2021-10-28 13:02:41.453545: index = 2800
2021-10-28 13:07:45.527494: Generator(
  (net): Sequential(
    (0): Linear(in_features=230, out_features=128, bias=True)
    (1): Linear(in_features=128, out_features=4096, bias=True)
    (2): ReLU(inplace=True)
    (3): Linear(in_features=4096, out_features=23, bias=True)
  )
)
2021-10-28 13:07:45.528436: Discriminator(
  (net): Sequential(
    (0): Linear(in_features=23, out_features=1024, bias=True)
    (1): Linear(in_features=1024, out_features=1024, bias=True)
    (2): ReLU(inplace=True)
    (3): Linear(in_features=1024, out_features=512, bias=True)
    (4): Sigmoid()
  )
  (neurons): Linear(in_features=512, out_features=31, bias=True)
  (softmax): Softmax(dim=1)
)
2021-10-28 13:07:45.577236: index = 2900
2021-10-28 13:12:59.071661: Generator(
  (net): Sequential(
    (0): Linear(in_features=230, out_features=128, bias=True)
    (1): Linear(in_features=128, out_features=4096, bias=True)
    (2): ReLU(inplace=True)
    (3): Linear(in_features=4096, out_features=23, bias=True)
  )
)
2021-10-28 13:12:59.073613: Discriminator(
  (net): Sequential(
    (0): Linear(in_features=23, out_features=1024, bias=True)
    (1): Linear(in_features=1024, out_features=1024, bias=True)
    (2): ReLU(inplace=True)
    (3): Linear(in_features=1024, out_features=512, bias=True)
    (4): Sigmoid()
  )
  (neurons): Linear(in_features=512, out_features=32, bias=True)
  (softmax): Softmax(dim=1)
)
2021-10-28 13:12:59.121487: index = 3000
2021-10-28 13:18:22.997108: Generator(
  (net): Sequential(
    (0): Linear(in_features=230, out_features=128, bias=True)
    (1): Linear(in_features=128, out_features=4096, bias=True)
    (2): ReLU(inplace=True)
    (3): Linear(in_features=4096, out_features=23, bias=True)
  )
)
2021-10-28 13:18:22.998089: Discriminator(
  (net): Sequential(
    (0): Linear(in_features=23, out_features=1024, bias=True)
    (1): Linear(in_features=1024, out_features=1024, bias=True)
    (2): ReLU(inplace=True)
    (3): Linear(in_features=1024, out_features=512, bias=True)
    (4): Sigmoid()
  )
  (neurons): Linear(in_features=512, out_features=33, bias=True)
  (softmax): Softmax(dim=1)
)
2021-10-28 13:18:23.045924: index = 3100
2021-10-28 13:23:56.880198: Generator(
  (net): Sequential(
    (0): Linear(in_features=230, out_features=128, bias=True)
    (1): Linear(in_features=128, out_features=4096, bias=True)
    (2): ReLU(inplace=True)
    (3): Linear(in_features=4096, out_features=23, bias=True)
  )
)
2021-10-28 13:23:56.881174: Discriminator(
  (net): Sequential(
    (0): Linear(in_features=23, out_features=1024, bias=True)
    (1): Linear(in_features=1024, out_features=1024, bias=True)
    (2): ReLU(inplace=True)
    (3): Linear(in_features=1024, out_features=512, bias=True)
    (4): Sigmoid()
  )
  (neurons): Linear(in_features=512, out_features=34, bias=True)
  (softmax): Softmax(dim=1)
)
2021-10-28 13:23:56.929050: index = 3200
2021-10-28 13:29:39.839500: Generator(
  (net): Sequential(
    (0): Linear(in_features=230, out_features=128, bias=True)
    (1): Linear(in_features=128, out_features=4096, bias=True)
    (2): ReLU(inplace=True)
    (3): Linear(in_features=4096, out_features=23, bias=True)
  )
)
2021-10-28 13:29:39.841419: Discriminator(
  (net): Sequential(
    (0): Linear(in_features=23, out_features=1024, bias=True)
    (1): Linear(in_features=1024, out_features=1024, bias=True)
    (2): ReLU(inplace=True)
    (3): Linear(in_features=1024, out_features=512, bias=True)
    (4): Sigmoid()
  )
  (neurons): Linear(in_features=512, out_features=35, bias=True)
  (softmax): Softmax(dim=1)
)
2021-10-28 13:29:39.889243: index = 3300
2021-10-28 13:35:32.001634: Generator(
  (net): Sequential(
    (0): Linear(in_features=230, out_features=128, bias=True)
    (1): Linear(in_features=128, out_features=4096, bias=True)
    (2): ReLU(inplace=True)
    (3): Linear(in_features=4096, out_features=23, bias=True)
  )
)
2021-10-28 13:35:32.002572: Discriminator(
  (net): Sequential(
    (0): Linear(in_features=23, out_features=1024, bias=True)
    (1): Linear(in_features=1024, out_features=1024, bias=True)
    (2): ReLU(inplace=True)
    (3): Linear(in_features=1024, out_features=512, bias=True)
    (4): Sigmoid()
  )
  (neurons): Linear(in_features=512, out_features=36, bias=True)
  (softmax): Softmax(dim=1)
)
2021-10-28 13:35:32.050447: index = 3400
2021-10-28 13:41:34.210078: Generator(
  (net): Sequential(
    (0): Linear(in_features=230, out_features=128, bias=True)
    (1): Linear(in_features=128, out_features=4096, bias=True)
    (2): ReLU(inplace=True)
    (3): Linear(in_features=4096, out_features=23, bias=True)
  )
)
2021-10-28 13:41:34.211055: Discriminator(
  (net): Sequential(
    (0): Linear(in_features=23, out_features=1024, bias=True)
    (1): Linear(in_features=1024, out_features=1024, bias=True)
    (2): ReLU(inplace=True)
    (3): Linear(in_features=1024, out_features=512, bias=True)
    (4): Sigmoid()
  )
  (neurons): Linear(in_features=512, out_features=37, bias=True)
  (softmax): Softmax(dim=1)
)
2021-10-28 13:41:34.259903: index = 3500
2021-10-28 13:47:46.812870: Generator(
  (net): Sequential(
    (0): Linear(in_features=230, out_features=128, bias=True)
    (1): Linear(in_features=128, out_features=4096, bias=True)
    (2): ReLU(inplace=True)
    (3): Linear(in_features=4096, out_features=23, bias=True)
  )
)
2021-10-28 13:47:46.813872: Discriminator(
  (net): Sequential(
    (0): Linear(in_features=23, out_features=1024, bias=True)
    (1): Linear(in_features=1024, out_features=1024, bias=True)
    (2): ReLU(inplace=True)
    (3): Linear(in_features=1024, out_features=512, bias=True)
    (4): Sigmoid()
  )
  (neurons): Linear(in_features=512, out_features=38, bias=True)
  (softmax): Softmax(dim=1)
)
2021-10-28 13:47:46.861715: index = 3600
2021-10-28 13:54:06.648783: Generator(
  (net): Sequential(
    (0): Linear(in_features=230, out_features=128, bias=True)
    (1): Linear(in_features=128, out_features=4096, bias=True)
    (2): ReLU(inplace=True)
    (3): Linear(in_features=4096, out_features=23, bias=True)
  )
)
2021-10-28 13:54:06.650737: Discriminator(
  (net): Sequential(
    (0): Linear(in_features=23, out_features=1024, bias=True)
    (1): Linear(in_features=1024, out_features=1024, bias=True)
    (2): ReLU(inplace=True)
    (3): Linear(in_features=1024, out_features=512, bias=True)
    (4): Sigmoid()
  )
  (neurons): Linear(in_features=512, out_features=39, bias=True)
  (softmax): Softmax(dim=1)
)
2021-10-28 13:54:06.706413: index = 3700
2021-10-28 14:00:37.383681: Generator(
  (net): Sequential(
    (0): Linear(in_features=230, out_features=128, bias=True)
    (1): Linear(in_features=128, out_features=4096, bias=True)
    (2): ReLU(inplace=True)
    (3): Linear(in_features=4096, out_features=23, bias=True)
  )
)
2021-10-28 14:00:37.384655: Discriminator(
  (net): Sequential(
    (0): Linear(in_features=23, out_features=1024, bias=True)
    (1): Linear(in_features=1024, out_features=1024, bias=True)
    (2): ReLU(inplace=True)
    (3): Linear(in_features=1024, out_features=512, bias=True)
    (4): Sigmoid()
  )
  (neurons): Linear(in_features=512, out_features=40, bias=True)
  (softmax): Softmax(dim=1)
)
2021-10-28 14:00:37.435443: index = 3800
2021-10-28 14:00:38.788304: drift_indices = [(0, 100), (100, 200), (200, 300), (300, 400), (400, 500), (500, 600), (600, 700), (700, 800), (800, 900), (900, 1000), (1000, 1100), (1100, 1200), (1200, 1300), (1300, 1400), (1400, 1500), (1500, 1600), (1600, 1700), (1700, 1800), (1800, 1900), (1900, 2000), (2000, 2100), (2100, 2200), (2200, 2300), (2300, 2400), (2400, 2500), (2500, 2600), (2600, 2700), (2700, 2800), (2800, 2900), (2900, 3000), (3000, 3100), (3100, 3200), (3200, 3300), (3300, 3400), (3400, 3500), (3500, 3600), (3600, 3700), (3700, 3800), (3800, 3900)]
…
